autoencoders/simple/simple_autoencoder.pth (torch_old, 882181 bytes, 16 tensors)

encoder.0.weight f4 [128, 784]
0	0x359dd6de	1.1759946e-06
1	0x359dd6e4	1.1759953e-06
2	0x359dd6de	1.1759946e-06
3	0x359dd6de	1.1759946e-06
4	0x359dd6de	1.1759946e-06
5	0x359dd6de	1.1759946e-06
6	0x359dd6e4	1.1759953e-06
7	0x359dd6de	1.1759946e-06
8	0x359dd6e4	1.1759953e-06
9	0x359dd6e4	1.1759953e-06
10	0x359dd6e4	1.1759953e-06
11	0x359dd6e4	1.1759953e-06
12	0x359dd6e4	1.1759953e-06
13	0x359dd6de	1.1759946e-06
14	0x359dd6e4	1.1759953e-06
15	0x359dd6e4	1.1759953e-06
16	0x359dd6e4	1.1759953e-06
17	0x359dd6de	1.1759946e-06
18	0x359dd6e4	1.1759953e-06
19	0x359dd6de	1.1759946e-06
20	0x359dd6de	1.1759946e-06
21	0x359dd6e4	1.1759953e-06
22	0x359dd6de	1.1759946e-06
23	0x359dd6e4	1.1759953e-06
24	0x359dd6de	1.1759946e-06
25	0x359dd6e4	1.1759953e-06
26	0x359dd6e4	1.1759953e-06
27	0x359dd6de	1.1759946e-06
28	0x359dd6de	1.1759946e-06
29	0x359dd6e4	1.1759953e-06
30	0x359dd6e4	1.1759953e-06
31	0x359dd6de	1.1759946e-06
32	0x359dd6de	1.1759946e-06
33	0x359dd6de	1.1759946e-06
34	0x359d9134	1.1739671e-06
35	0x359d7384	1.1731031e-06
36	0x359dd6b3	1.1759897e-06
37	0x359de615	1.1764374e-06
38	0x359a27b8	1.1485454e-06
39	0x35983b9d	1.1342232e-06
40	0x359b326e	1.1563077e-06
41	0x359b9f01	1.1594676e-06
42	0x359b00f1	1.1548674e-06
43	0x359bb922	1.1602281e-06
44	0x359d2c36	1.1710279e-06
45	0x359d5ab9	1.1723815e-06
46	0x359dae30	1.1748107e-06
47	0x359dd93c	1.1760635e-06
48	0x359df92f	1.1769934e-06
49	0x359de1bd	1.176311e-06
50	0x359dd6e4	1.1759953e-06
51	0x359dd6de	1.1759946e-06
52	0x359dd6de	1.1759946e-06
53	0x359dd6de	1.1759946e-06
54	0x359dd6de	1.1759946e-06
55	0x359dd6e4	1.1759953e-06
56	0x359dd6de	1.1759946e-06
57	0x359dd6e4	1.1759953e-06
58	0x359dd6e4	1.1759953e-06
59	0x359dd6de	1.1759946e-06
60	0x359dda7e	1.1761001e-06
61	0x359dd7bd	1.17602e-06
62	0x359db7a8	1.1750863e-06
63	0x359d3fd0	1.1715983e-06
64	0x359d501c	1.1720726e-06
65	0x359d0f84	1.1701927e-06
66	0x359b6b40	1.1579614e-06
67	0x35962f28	1.1189595e-06
68	0x3599f06e	1.1469363e-06
69	0x35992da8	1.1412676e-06
70	0x358e2130	1.0589483e-06
71	0x35b1a704	1.3236136e-06
72	0x357bc027	9.3784405e-07
73	0x3526cde7	6.2139446e-07
74	0x34e04180	4.177091e-07
75	0x349d8362	2.9339122e-07
76	0x350058e4	4.781307e-07
77	0x35415a11	7.2029167e-07
78	0x35718956	8.9979346e-07
79	0x35867969	1.0019113e-06
80	0x359ddfd0	1.176255e-06
81	0x359dd6de	1.1759946e-06
82	0x359dd6e4	1.1759953e-06
83	0x359dd6de	1.1759946e-06
84	0x359dd6e4	1.1759953e-06
85	0x359dd6de	1.1759946e-06
86	0x359dd6cf	1.1759929e-06
87	0x359dd6de	1.1759946e-06
88	0x359dd7c6	1.176021e-06
89	0x359e014b	1.1772294e-06
90	0x359df254	1.1767938e-06
91	0x35993950	1.1416068e-06
92	0x3589071c	1.0209365e-06
93	0x3584450d	9.854863e-07
94	0x35306817	6.571658e-07
95	0x33bf35e3	8.9039325e-08
96	0x33071260	3.144885e-08
97	0x3267fbf4	1.3503257e-08
98	0x34012b66	1.202985e-07
99	0x34d5e501	3.9840964e-07
100	0x34ae9173	3.2515854e-07
101	0x349763bf	2.8198517e-07
102	0x34430951	1.816418e-07
103	0x34b94eeb	3.4516356e-07
104	0x35174dcb	5.636509e-07
105	0x358aa633	1.0330172e-06
106	0x359195f8	1.0846989e-06
107	0x359b0724	1.1550478e-06
108	0x359d95bf	1.1740993e-06
109	0x359dd6bf	1.1759911e-06
110	0x359dd6e4	1.1759953e-06
111	0x359dd6e4	1.1759953e-06
112	0x359dd6e4	1.1759953e-06
113	0x359dd6de	1.1759946e-06
114	0x359dd6cf	1.1759929e-06
115	0x359dd6e4	1.1759953e-06
116	0x359dd85a	1.1760378e-06
117	0x35ad142d	1.2895376e-06
118	0x35b1b7c2	1.3241008e-06
119	0x3575a898	9.151495e-07
120	0x353a7311	6.9457843e-07
121	0x35064d5e	5.0031474e-07
122	0x3310ee38	3.374427e-08
123	0x30a483e3	1.1970055e-09
124	0x31027cdd	1.8988466e-09
125	0x308f1a8b	1.0412163e-09
126	0x30f2ddb6	1.7670831e-09
127	0x31aba256	4.9952105e-09
128	0x318493ea	3.8585215e-09
129	0x2dcf6f1b	2.3582516e-11
130	0x2f7121b4	2.1930796e-10
131	0x32adc692	2.023015e-08
132	0x345c173f	2.0497554e-07
133	0x35136bc4	5.4918587e-07
134	0x3581130e	9.616795e-07
135	0x3570b84e	8.9675166e-07
136	0x3577a40c	9.225339e-07
137	0x3585df9c	9.974351e-07
138	0x359d9863	1.1741762e-06
139	0x359dd6de	1.1759946e-06
140	0x359dd6de	1.1759946e-06
141	0x359dd6de	1.1759946e-06
142	0x359dd6bf	1.1759911e-06
143	0x359d9ecd	1.1743629e-06
144	0x359e1c77	1.1780202e-06
145	0x35bcbd03	1.4062101e-06
146	0x358d9a4a	1.0550223e-06
147	0x3505dc73	4.9867157e-07
148	0x34cb8af7	3.7912807e-07
149	0x348aa1f0	2.5822328e-07
150	0x32f1f7af	2.8168726e-08
151	0x32ff2e76	2.9707035e-08
152	0x34404c27	1.7909097e-07
153	0x340aaa42	1.2914191e-07
154	0x2d492a83	1.1434967e-11
155	0xa25a71be	-2.9604724e-18
156	0x1bcc2ee8	3.3779281e-22
157	0x97bcfcca	-1.2213028e-24
158	0x19205b09	8.2901905e-24
159	0x2a05ed24	1.1895048e-13
160	0x304991fc	7.333083e-10
161	0x33a8c4d2	7.858911e-08
162	0x34431ab1	1.81705e-07
163	0x352f61c0	6.5334825e-07
164	0x3569bc04	8.707286e-07
165	0x3588fbec	1.0206109e-06
166	0x35924f9f	1.090102e-06
167	0x359dd6de	1.1759946e-06
168	0x359dd6de	1.1759946e-06
169	0x359dd6e4	1.1759953e-06
170	0x359dff40	1.1771699e-06
171	0x359dbaef	1.1751816e-06
172	0x35912880	1.0815129e-06
173	0x3542c873	7.2562324e-07
174	0x35071132	5.031644e-07
175	0x353d9e2d	7.063816e-07
176	0x35468443	7.3953214e-07
177	0x3519b9aa	5.726712e-07
178	0x349418eb	2.7585278e-07
179	0x32b40fef	2.0962004e-08
180	0x320564f7	7.764576e-09
181	0x3105be11	1.9462087e-09
182	0x2671fd07	8.395659e-16
183	0x16693d88	1.8841006e-25
184	0x149cb953	1.5825072e-26
185	0x1466c9dc	1.1651842e-26
186	0x96059a3e	-1.0792325e-25
187	0x1b97de45	2.5124493e-22
188	0x28e58cf8	2.5485243e-14
189	0x303ef0f9	6.946404e-10
190	0x3308c4b0	3.1843854e-08
191	0x3427afa3	1.5616983e-07
192	0x34baed01	3.4817643e-07
193	0x3527ac78	6.2463323e-07
194	0x35869437	1.0026914e-06
195	0x359de53b	1.1764126e-06
196	0x359dd6e4	1.1759953e-06
197	0x359dd92c	1.1760617e-06
198	0x359de4e9	1.1764033e-06
199	0x359df3e3	1.1768392e-06
200	0x35649394	8.5151373e-07
201	0x3516be78	5.6156523e-07
202	0x34a6c441	3.1062703e-07
203	0x34bd9cc8	3.5318067e-07
204	0x34830150	2.4401606e-07
205	0x33a6eed4	7.77342e-08
206	0x32571ab0	1.2520715e-08
207	0x319a6bd3	4.494248e-09
208	0x300c5179	5.1047483e-10
209	0x250710bb	1.1715052e-16
210	0x9751717c	-6.767478e-25
211	0x96a187a1	-2.6096547e-25
212	0x198d413b	1.4605405e-23
213	0x973f5e5a	-6.1834517e-25
214	0x14c481ca	1.9842135e-26
215	0x968c356f	-2.265194e-25
216	0x19407349	9.949449e-24
217	0x2a757866	2.1802143e-13
218	0x2ff72805	4.4957474e-10
219	0x31a73608	4.8664823e-09
220	0x338dc5ed	6.6018266e-08
221	0x34bf679a	3.5651902e-07
222	0x35850046	9.909352e-07
223	0x359dd841	1.176035e-06
224	0x359dd6e4	1.1759953e-06
225	0x359de5bd	1.1764274e-06
226	0x359d7e54	1.1734178e-06
227	0x359aef33	1.154351e-06
228	0x356ab10b	8.7429424e-07
229	0x346fa6f0	2.2319341e-07
230	0x3421893b	1.5044218e-07
231	0x34a7e732	3.127439e-07
232	0x34099efb	1.2816956e-07
233	0x31b8ea23	5.381723e-09
234	0x2e98b9af	6.945144e-11
235	0x2bffbfd6	1.8172085e-12
236	0x26c2d95f	1.3520373e-15
237	0x98beb072	-4.9292013e-24
238	0x95eccae2	-9.5639734e-26
239	0x973b880c	-6.0594674e-25
240	0x1706a5f8	4.3507217e-25
241	0x16f85a4b	4.0123544e-25
242	0x150fd37a	2.9045446e-26
243	0x1697e8c7	2.454227e-25
244	0x1997f2c9	1.5711094e-23
245	0x2b6425cb	8.105432e-13
246	0x3005f9bb	4.8740006e-10
247	0x32b11597	2.061533e-08
248	0x3498df9c	2.8474904e-07
249	0x354a8811	7.5448867e-07
250	0x3596c8c6	1.1234304e-06
251	0x359dddd5	1.1761973e-06
252	0x359dd6e4	1.1759953e-06
253	0x359ddcd3	1.176168e-06
254	0x3599b6e6	1.1452619e-06
255	0x3576d797	9.1955866e-07

encoder.0.bias f4 [128]
0	0xb59dd6e4	-1.1759953e-06
1	0xae79846a	-5.6733652e-11
2	0xbd8e7fa8	-0.06957942
3	0xb081c3ed	-9.441671e-10
4	0x3d458962	0.04822672
5	0xbca88f57	-0.020576162
6	0xb195c91a	-4.3593333e-09
7	0xbc3e6f54	-0.011623222
8	0xab8511e1	-9.455181e-13
9	0xbca7db52	-0.020490322
10	0xaf6bd2c5	-2.1448006e-10
11	0x3d0ec223	0.034853112
12	0xbd63f681	-0.055655006
13	0xbbceb39a	-0.0063080313
14	0xb473f378	-2.2719712e-07
15	0xb14278ff	-2.8299494e-09
16	0xbd6b5491	-0.057453696
17	0xb3a6236a	-7.736419e-08
18	0xbcb5b03a	-0.022178758
19	0xbc67dfc8	-0.014152475
20	0xbdaee84a	-0.085403994
21	0xbc2e262f	-0.010629221
22	0xbb295cca	-0.002584266
23	0xbd88e5c8	-0.06684452
24	0xb899e81b	-7.3388415e-05
25	0xb99a1140	-0.0002938602
26	0xb68161d7	-3.8558896e-06
27	0x3d0b0a10	0.033945143
28	0xbe477bba	-0.19480792
29	0xbae48f36	-0.00174377
30	0xb84eddc7	-4.9320774e-05
31	0xbd2faf5c	-0.042891845
32	0xb98c747a	-0.00026789663
33	0xb97be512	-0.0002402256
34	0x3c652182	0.01398504
35	0xbaebde5e	-0.0017995348
36	0xbac73ac4	-0.0015200009
37	0xabe01f87	-1.5924908e-12
38	0xb58081c7	-9.574513e-07
39	0xacc3a981	-5.561052e-12
40	0xbb9770e9	-0.0046216142
41	0xbc25c413	-0.0101175485
42	0xbd122697	-0.035681333
43	0x3a883879	0.0010392807
44	0xaa6dbd1e	-2.1115442e-13
45	0xbdbd7822	-0.09251429
46	0xbb566130	-0.0032711737
47	0xb6a1d002	-4.822389e-06
48	0xa4388bda	-4.00171e-17
49	0xb38c3550	-6.5289555e-08
50	0xb76e1525	-1.4190829e-05
51	0xafb2eb07	-3.2545008e-10
52	0x3bc1ca2d	0.005913994
53	0xb9a334cc	-0.0003112912
54	0x3b75b6db	0.0037493024
55	0xb01c01bd	-5.675494e-10
56	0xbc0f7eb8	-0.008758239
57	0xb011eebd	-5.308996e-10
58	0xa3c5077a	-2.136195e-17
59	0xaf2c58c2	-1.5674842e-10
60	0xbbe83d69	-0.007087399
61	0xba97a3d1	-0.0011569207
62	0xbba772e5	-0.005110132
63	0xb6263f0f	-2.4772633e-06
64	0xb069ccd8	-8.5056007e-10
65	0xb8a953c7	-8.074153e-05
66	0xbde0968a	-0.10966213
67	0xbcdeed24	-0.027212687
68	0x3d422ab5	0.04740401
69	0xb80d6fd9	-3.3721186e-05
70	0xb83fc279	-4.5719065e-05
71	0xafc32eef	-3.5503642e-10
72	0xbd9f34b6	-0.07773726
73	0xbd93be7d	-0.07214067
74	0xb53faea5	-7.1407186e-07
75	0xb50afdfa	-5.177859e-07
76	0xab42695e	-6.906887e-13
77	0xb89f9919	-7.6102275e-05
78	0xb6391c0b	-2.7583471e-06
79	0xb507498d	-5.039845e-07
80	0xb8c40bf0	-9.348232e-05
81	0xb8ed4336	-0.0001131356
82	0xbb216954	-0.002462943
83	0xb2415289	-1.1252845e-08
84	0xb6fade93	-7.4764916e-06
85	0xb9804e0e	-0.00024472218
86	0xbcf17dd2	-0.029478941
87	0xb9acac2e	-0.0003293468
88	0x9c3b0f25	-6.1892684e-22
89	0xbb1afb70	-0.0023648404
90	0xb9da68d6	-0.0004165831
91	0x3d5d5179	0.054032777
92	0xb40ea5c3	-1.3285084e-07
93	0xba13ae93	-0.00056336186
94	0xbd67902e	-0.056533985
95	0xbafdc015	-0.0019359613
96	0xba3e812f	-0.00072671747
97	0xb6d81c62	-6.440606e-06
98	0xb88060e2	-6.1215615e-05
99	0xb0d82966	-1.5727835e-09
100	0xacbf811d	-5.442881e-12
101	0xbca9b2f0	-0.020715207
102	0x92a3810c	-1.0318559e-27
103	0xba12c512	-0.0005598824
104	0xad8730be	-1.5369369e-11
105	0xbcb15e90	-0.021651536
106	0xaf0d7c30	-1.2867996e-10
107	0x3c9aba1b	0.01888757
108	0xbcdef77e	-0.027217623
109	0xbab0481c	-0.0013449225
110	0xbc159952	-0.009130793
111	0xb6858f10	-3.9803635e-06
112	0xbb64bf4c	-0.003490406
113	0xbb6e04f3	-0.0036318868
114	0xbced21fd	-0.028946871
115	0xbd253b51	-0.04033977
116	0xbc3770e6	-0.011196351
117	0xa09c3f0d	-2.6469151e-19
118	0xbd899dd4	-0.067195565
119	0xb7782ef2	-1.4792882e-05
120	0xbb5263b9	-0.0032102896
121	0xba18843c	-0.00058180443
122	0xb59bc164	-1.1604684e-06
123	0xbdb39295	-0.08768193
124	0xbc5aff65	-0.013366555
125	0xb7eb859c	-2.80764e-05
126	0xb4fb06c1	-4.6757307e-07
127	0xa06a9a0e	-1.9871543e-19

encoder.2.weight f4 [64, 128]
0	0x00157743	1.971328e-39
1	0x802da0f0	-4.190331e-39
2	0x0047938e	6.573253e-39
3	0x030d447b	4.1514788e-37
4	0xbbf40058	-0.00744633
5	0x00169914	2.075295e-39
6	0x0017ae90	2.174838e-39
7	0x0dbb2334	1.153324e-30
8	0x00206c31	2.977548e-39
9	0x0eade525	4.286845e-30
10	0x003ef5ec	5.782021e-39
11	0xbc113c2c	-0.008864444
12	0x0040193f	5.886528e-39
13	0x09fbca3a	6.0616225e-33
14	0x80254f06	-3.426262e-39
15	0x801e7753	-2.79787e-39
16	0xbcd77840	-0.026302457
17	0x802402ac	-3.307036e-39
18	0x0011221a	1.573437e-39
19	0x002ba83a	4.009275e-39
20	0x003f2488	5.798741e-39
21	0x05f023a4	2.2582584e-35
22	0x00174173	2.135695e-39
23	0xb93f9a99	-0.00018272772
24	0x80355b82	-4.900108e-39
25	0x8019bd06	-2.363696e-39
26	0x002c1740	4.049102e-39
27	0xb8121fc3	-3.4838693e-05
28	0x82218a9b	-1.186819e-37
29	0x801070ce	-1.509835e-39
30	0x805202f7	-7.531574e-39
31	0x001106b5	1.56361e-39
32	0x80508fba	-7.398399e-39
33	0x00525e6a	7.56438e-39
34	0xb03d5371	-6.8876377e-10
35	0x81cae93f	-7.453777e-38
36	0x801d85c2	-2.711213e-39
37	0x80483449	-6.630912e-39
38	0x0143799c	3.5903094e-38
39	0x003865ba	5.17928e-39
40	0x001c7c5d	2.616007e-39
41	0x80193fcd	-2.318775e-39
42	0x81a2587d	-5.9636376e-38
43	0xbaf2603e	-0.0018491817
44	0x001ce3fa	2.653176e-39
45	0x2080a5a3	2.1793653e-19
46	0x8f5c0daf	-1.0849473e-29
47	0x001f80e7	2.893142e-39
48	0x003a5743	5.357762e-39
49	0x0216b5e1	1.1072456e-37
50	0x00171537	2.119827e-39
51	0x81f77a16	-9.0908655e-38
52	0x110bda1a	1.1032374e-28
53	0x01a48a52	6.0442565e-38
54	0xbd156ee4	-0.036482707
55	0x002c3a8c	4.061764e-39
56	0x00c00f70	1.7637953e-38
57	0x816076cc	-4.1227535e-38
58	0x003da1a9	5.659958e-39
59	0x801fe648	-2.92951e-39
60	0x0020bc47	3.006277e-39
61	0x80047993	-4.10955e-40
62	0x0e87e17f	3.3497214e-30
63	0x8dbdb065	-1.169049e-30
64	0x8007cab7	-7.15569e-40
65	0x01573ed4	3.953434e-38
66	0x813de2b0	-3.4876458e-38
67	0x80215d98	-3.064146e-39
68	0xad13aaaf	-8.393882e-12
69	0x018dff02	5.216114e-38
70	0x003c3c24	5.531704e-39
71	0x802f9104	-4.36829e-39
72	0x0179311e	4.5769317e-38
73	0x0d3e8f32	5.8720635e-31
74	0x820ab103	-1.0189439e-37
75	0x001a4d78	2.415513e-39
76	0x001e2629	2.768754e-39
77	0x002488fe	3.355221e-39
78	0x801b7ea2	-2.524986e-39
79	0x0215570f	1.0971776e-37
80	0x0041f4cc	6.057124e-39
81	0x0024e048	3.386535e-39
82	0x00491989	6.713152e-39
83	0x021c86bf	1.149974e-37
84	0x001ac6be	2.459018e-39
85	0x00497147	6.744627e-39
86	0x803fa777	-5.845711e-39
87	0x192ceeff	8.9404565e-24
88	0x0204b446	9.749564e-38
89	0x8007d738	-7.20054e-40
90	0x0033aedc	4.746338e-39
91	0xa64cee3a	-7.1099575e-16
92	0x001d8953	2.712492e-39
93	0x002d55cd	4.163377e-39
94	0x00462e14	6.445014e-39
95	0x80493724	-6.723772e-39
96	0x000edd5b	1.365104e-39
97	0x803059e9	-4.440358e-39
98	0x000b7473	1.051965e-39
99	0x80253964	-3.418501e-39
100	0x801b7530	-2.521597e-39
101	0x0010b817	1.535407e-39
102	0x8038cc8a	-5.216163e-39
103	0x012dded2	3.1934947e-38
104	0x80104f81	-1.497889e-39
105	0x00201fa5	2.950088e-39
106	0x81aa0362	-6.245299e-38
107	0x10294a6f	3.3386715e-29
108	0x801ffa33	-2.936655e-39
109	0x800f5f2b	-1.411672e-39
110	0x00422a14	6.076238e-39
111	0x0034217f	4.787462e-39
112	0x0023bb1b	3.281363e-39
113	0x8002da92	-2.62079e-40
114	0x0010bc2f	1.536875e-39
115	0x8dcc004e	-1.2572544e-30
116	0x063020e0	3.3126074e-35
117	0x8023f0c2	-3.30061e-39
118	0x8022920a	-3.174796e-39
119	0x0001e547	1.74085e-40
120	0x8022acd0	-3.1844e-39
121	0x803b8cdf	-5.46883e-39
122	0x01eb9290	8.6535673e-38
123	0xb0cf1ea1	-1.5069938e-09
124	0x01bb069d	6.870244e-38
125	0x80178a75	-2.161885e-39
126	0x00007129	4.0594e-41
127	0x017cc2b0	4.6424771e-38
128	0x00134ed1	1.773148e-39
129	0x8011bc97	-1.628857e-39
130	0x80313aac	-4.520987e-39
131	0x820a23a6	-1.0148869e-37
132	0xbcadde4f	-0.021224169
133	0x29b8d87a	8.208794e-14
134	0x81bc8de5	-6.92639e-38
135	0x2ed995a9	9.8946025e-11
136	0x80145a66	-1.869139e-39
137	0xba1be025	-0.0005946181
138	0x803490f0	-4.82744e-39
139	0xbbf1daaf	-0.0073808054
140	0x80154537	-1.953375e-39
141	0x802ed64e	-4.301311e-39
142	0x25fd78b6	4.39703e-16
143	0x01a604fe	6.0985933e-38
144	0xbb0a17f7	-0.0021071413
145	0x80184673	-2.229324e-39
146	0x801967d7	-2.333138e-39
147	0x2c1b37ee	2.2057872e-12
148	0x80114699	-1.586529e-39
149	0x8010b001	-1.532506e-39
150	0x0001ede6	1.77177e-40
151	0xb95ec7af	-0.00021245958
152	0x8033dabb	-4.762076e-39
153	0x01af6a9a	6.4437813e-38
154	0x80148799	-1.885353e-39
155	0xb05a630a	-7.944868e-10
156	0x8215af03	-1.0997017e-37
157	0x26404456	6.6705994e-16
158	0x001449f0	1.863234e-39
159	0x00151bbd	1.938496e-39
160	0x046b3060	2.764633e-36
161	0x003fb5ec	5.850898e-39
162	0xb8401066	-4.579164e-05
163	0xaf354892	-1.6487636e-10
164	0x2b932014	1.0453882e-12
165	0x0009d86c	9.04157e-40
166	0x80289201	-3.725796e-39
167	0x80059f37	-5.16293e-40
168	0x800843d3	-7.59015e-40
169	0x90feb39b	-1.0046206e-28
170	0x801febe1	-2.931518e-39
171	0xbcb55228	-0.022133902
172	0x818a3d40	-5.0781083e-38
173	0xb62b22d9	-2.550127e-06
174	0xae5dc115	-5.0421074e-11
175	0x801812bb	-2.210771e-39
176	0x0016d7bc	2.097772e-39
177	0x00196b70	2.334429e-39
178	0xad3c808c	-1.0715106e-11
179	0x821b20db	-1.1397031e-37
180	0xaf0a2776	-1.2565046e-10
181	0x01fb616a	9.234262e-38
182	0xbd2c92d6	-0.04213222
183	0x1802136b	1.681191e-24
184	0x2e20fd6b	3.660487e-11
185	0x96d41d1d	-3.426882e-25
186	0x0046b340	6.492788e-39
187	0x8009dd80	-9.05979e-40
188	0x81664a5c	-4.2297678e-38
189	0x803ab128	-5.39001e-39
190	0x2ea55135	7.5177566e-11
191	0x01ff23e4	9.3723707e-38
192	0x8221e0e9	-1.1892958e-37
193	0x803a8174	-5.372898e-39
194	0x01d57b88	7.84211e-38
195	0x1b80350a	2.12101e-22
196	0xb7fa8721	-2.9865247e-05
197	0x01d88111	7.953107e-38
198	0x801a4007	-2.410692e-39
199	0x00135a2c	1.777222e-39
200	0x80164b59	-2.04741e-39
201	0x34ae1610	3.2426078e-07
202	0x8251df7c	-1.5419032e-37
203	0x17f81948	1.6033006e-24
204	0x002150dd	3.05958e-39
205	0x0030da08	4.486319e-39
206	0x05029876	6.140573e-36
207	0x00214f06	3.05892e-39
208	0x0014b89b	1.902934e-39
209	0x801b24b1	-2.492721e-39
210	0x826262c7	-1.6632205e-37
211	0x01803138	4.70904e-38
212	0x00098815	8.75337e-40
213	0x0025ee37	3.483369e-39
214	0x2e8ce186	6.406524e-11
215	0xb7b2efcc	-2.1330918e-05
216	0x8002f208	-2.70495e-40
217	0x8158ec64	-3.9842536e-38
218	0x0015d651	2.005428e-39
219	0x3381b247	6.039459e-08
220	0x01b994c0	6.8171713e-38
221	0x815f3714	-4.0998148e-38
222	0x000852a2	7.64327e-40
223	0x8018a44a	-2.262988e-39
224	0x8042518c	-6.090396e-39
225	0x8031ec96	-4.58481e-39
226	0x002ff614	4.404545e-39
227	0x80312f74	-4.516962e-39
228	0x012cbad8	3.1725464e-38
229	0x2ae2ac1f	4.0265098e-13
230	0x0016dda5	2.099892e-39
231	0x801afd2c	-2.478544e-39
232	0x802b03aa	-3.950241e-39
233	0x81afec51	-6.4623945e-38
234	0x000e01a0	1.28628e-39
235	0xb7ab145e	-2.0394273e-05
236	0x00329461	4.645003e-39
237	0x802c8e04	-4.091707e-39
238	0x041ce501	1.8442865e-36
239	0x00d6d650	1.9729677e-38
240	0x800371fb	-3.16395e-40
241	0x0050a25c	7.405083e-39
242	0x8001b522	-1.56814e-40
243	0xafafc893	-3.197483e-10
244	0x9191e34c	-2.3017049e-28
245	0x80128a4a	-1.702648e-39
246	0x0191b7e4	5.352846e-38
247	0x84abd032	-4.0393104e-36
248	0x87747806	-1.8391792e-34
249	0x0110acf8	2.6572722e-38
250	0x802fc9a2	-4.3886e-39
251	0xaf858124	-2.428432e-10
252	0x002eebd0	4.309026e-39
253	0xb3631c2a	-5.287817e-08
254	0x0046ec31	6.513214e-39
255	0x00387fe6	5.188669e-39

encoder.2.bias f4 [64]
0	0x904f62a2	-4.0899536e-29
1	0xaf605c16	-2.0405397e-10
2	0xbdaff5f2	-0.08591832
3	0x011e9464	2.9126482e-38
4	0xaf808cac	-2.3383018e-10
5	0x002c566a	4.071761e-39
6	0xbc498bde	-0.012301413
7	0xab5024de	-7.394761e-13
8	0x3e5a17d1	0.21298148
9	0x1686bc1d	2.1767584e-25
10	0x00340c03	4.779755e-39
11	0x1f42c986	4.1247794e-20
12	0xbd78b492	-0.06071908
13	0x00000f8a	5.574e-42
14	0x3cc02a4e	0.023457672
15	0x8037edba	-5.136233e-39
16	0x3d13e8ff	0.036110874
17	0x3da96fbe	0.08273266
18	0xb90b5dc3	-0.00013291002
19	0x1b0f64aa	1.1861209e-22
20	0x8006dd75	-6.30457e-40
21	0x1627e101	1.3561151e-25
22	0x80321aec	-4.601433e-39
23	0x3e3ea526	0.18617687
24	0xbc50c63a	-0.012742573
25	0x3ea9c8a3	0.33160886
26	0x0c7269f0	1.8674881e-31
27	0x003c338c	5.528621e-39
28	0x3e6f411a	0.23364678
29	0xbe34725f	-0.17621754
30	0xbd203dff	-0.039121624
31	0x00323fb2	4.614624e-39
32	0x80216040	-3.0651e-39
33	0x0085548a	1.2244448e-38
34	0xbd4e7a55	-0.050409634
35	0xa1982fae	-1.0312541e-18
36	0x80256843	-3.435315e-39
37	0x0007e6ea	7.25685e-40
38	0x3d85a4ca	0.06525572
39	0xafc14363	-3.5154377e-10
40	0xb3b8b6ca	-8.601417e-08
41	0x9072aa59	-4.7857316e-29
42	0xbdea9b93	-0.11455455
43	0x9a6cf553	-4.9001827e-23
44	0x80046b8f	-4.05927e-40
45	0x3da34428	0.07971984
46	0xbca25cd3	-0.019819653
47	0xbcd399aa	-0.025830109
48	0xb0369a77	-6.643072e-10
49	0x80469dbb	-6.485068e-39
50	0xbae9dbe9	-0.0017842028
51	0xad28b528	-9.589919e-12
52	0xbcea1e2f	-0.028578846
53	0x1d07a874	1.795419e-21
54	0xb49bed22	-2.9043537e-07
55	0x8003cfc7	-3.50043e-40
56	0x8037c232	-5.120616e-39
57	0xbccdd2a6	-0.025124859
58	0xbd93f76e	-0.07224928
59	0x07a83b91	2.531284e-34
60	0xb083aa0d	-9.579836e-10
61	0x9b10ebf4	-1.1987641e-22
62	0x3e23ec34	0.16008073
63	0x3ddc377b	0.107527696

encoder.4.weight f4 [12, 64]
0	0x803e9fb0	-5.751086e-39
1	0x1f0c3c68	2.969612e-20
2	0xb50aa737	-5.1652336e-07
3	0x80bfa762	-1.7600625e-38
4	0x188b083a	3.5938965e-24
5	0x800b0463	-1.011764e-39
6	0xb9b307e6	-0.00034147425
7	0x819e49a8	-5.8145725e-38
8	0xbc113ed1	-0.008865074
9	0x01664c18	4.2298923e-38
10	0x0038b5fe	5.208074e-39
11	0x80452c73	-6.352595e-39
12	0xa823eefc	-9.100139e-15
13	0x816d375c	-4.3569744e-38
14	0xb9ac9758	-0.00032919156
15	0x01830672	4.813105e-38
16	0x288a9448	1.5385384e-14
17	0xbc2aebf2	-0.01043223
18	0x8000cb40	-7.2912e-41
19	0x02092bb0	1.0077708e-37
20	0x803aaba1	-5.388028e-39
21	0x01be6755	6.994325e-38
22	0x82171cfe	-1.1102048e-37
23	0xba95c4bc	-0.0011426429
24	0x2a375209	1.6282127e-13
25	0xbbcf00ef	-0.00631725
26	0x8198edc2	-5.617715e-38
27	0x815a5930	-4.0104265e-38
28	0xb5cbdef3	-1.5189565e-06
29	0xbae6d1a9	-0.0017610091
30	0xa6f5f854	-1.70676e-15
31	0x8017cdf4	-2.186098e-39
32	0x81fda4ce	-9.3174005e-38
33	0x0035920c	4.919673e-39
34	0x01d9fb14	8.007349e-38
35	0x000e9c21	1.341705e-39
36	0x01a74ba0	6.145463e-38
37	0x014b41bc	3.7332374e-38
38	0x8025743d	-3.439612e-39
39	0x819f6a19	-5.855962e-38
40	0x009ce760	1.4409339e-38
41	0x81f8d004	-9.13993e-38
42	0xb8b96662	-8.840558e-05
43	0x0018c631	2.27515e-39
44	0x01f61042	9.0389457e-38
45	0xbac89e1c	-0.0015305909
46	0xb7f1c765	-2.882229e-05
47	0xbabe6102	-0.001452476
48	0x01a8d105	6.201338e-38
49	0x80110cec	-1.565839e-39
50	0x2ab05abb	3.1326837e-13
51	0x8012e86f	-1.73642e-39
52	0xb91c0e0d	-0.00014882554
53	0x8008694a	-7.72455e-40
54	0x8052b726	-7.596212e-39
55	0x01ec3dc2	8.6781326e-38
56	0x81fea5ee	-9.354296e-38
57	0xaddf2adf	-2.5371203e-11
58	0xb6ece411	-7.0598985e-06
59	0x8148fa73	-3.6913887e-38
60	0x8039fab2	-5.324556e-39
61	0x803795d8	-5.104706e-39
62	0xb9c92c4e	-0.00038370717
63	0xb979985a	-0.00023803246
64	0x2be2acb5	1.6106202e-12
65	0x39716d54	0.00023024279
66	0x3e0e631a	0.13904992
67	0xbb1bfb27	-0.0023800822
68	0xbe06d036	-0.13165364
69	0x3afdfba0	0.0019377358
70	0x3dd3ef10	0.10348332
71	0x3dfee3d1	0.12445796
72	0x3db56c72	0.08858575
73	0xb499c1f5	-2.8639593e-07
74	0x38879d01	6.466546e-05
75	0x386cc804	5.6453064e-05
76	0xbd25255c	-0.04031883
77	0xbbd3124a	-0.006441389
78	0xbd9bd601	-0.076091774
79	0xb6af68c6	-5.2276037e-06
80	0x3de8c4a0	0.11365628
81	0x3e0aa10e	0.13538
82	0xbd7c1539	-0.061543677
83	0xbde3c9a4	-0.11122444
84	0x38169cdf	3.5908884e-05
85	0x3106a247	1.959181e-09
86	0x2c96e5df	4.2887772e-12
87	0x3eb4ce19	0.3531349
88	0x3da5f2d5	0.08102957
89	0x3e565290	0.20929933
90	0x36e52981	6.8295635e-06
91	0xaa0214b2	-1.15535e-13
92	0xbf9d7dc9	-1.2304012
93	0xbdb2017d	-0.0869169
94	0x3dc188fb	0.09449955
95	0xb928b6b3	-0.0001608979
96	0x3708ce8f	8.154325e-06
97	0xb30ce845	-3.2807538e-08
98	0xbdb2b0e3	-0.08725145
99	0x3b197b95	0.0023419608
100	0xabf1a2e9	-1.7169297e-12
101	0xaf053a24	-1.2116935e-10
102	0xbdfb0841	-0.12257434
103	0x3d196e88	0.037458926
104	0x3e08a0db	0.13342611
105	0x39b80da1	0.0003510537
106	0xbdd8ea0c	-0.10591516
107	0x3dc022a5	0.09381608
108	0x09d3e201	5.1008935e-33
109	0xc035052b	-2.8284404
110	0xbd337c0d	-0.043819476
111	0xbe4ec759	-0.20193233
112	0xbe0ce9ed	-0.1376111
113	0xb861064b	-5.365004e-05
114	0x3f0818c2	0.5316278
115	0xac373f9b	-2.6041172e-12
116	0x3f0a25cc	0.53963923
117	0x371a646f	9.202499e-06
118	0xbc1d6957	-0.0096076345
119	0x1e049858	7.019526e-21
120	0xb59f6fd0	-1.1878965e-06
121	0x3ed2b1b3	0.411512
122	0x3e170b97	0.14750515
123	0xbaf69a97	-0.0018814382
124	0xbe2838ac	-0.16427869
125	0x39892327	0.00026156867
126	0xbe5e4abb	-0.21708195
127	0x3df73203	0.12070086
128	0x8ecefd86	-5.1027055e-30
129	0x32b74d1d	2.1339071e-08
130	0xbedd9b89	-0.43282726
131	0x0005a56b	5.18518e-40
132	0x315b45f3	3.1908456e-09
133	0x801f8c70	-2.89728e-39
134	0xbdcc1e55	-0.09966723
135	0x36ace69d	5.1528464e-06
136	0xbf8a8a6f	-1.0823497
137	0xa53c6abf	-1.6342568e-16
138	0x00147180	1.877426e-39
139	0x226fd4f2	3.2503272e-18
140	0x3ee0c86d	0.43902913
141	0x90154577	-2.9438582e-29
142	0xbebda23d	-0.3703784
143	0x33c91087	9.362798e-08
144	0x3f5f9d09	0.8734899
145	0xbf1237b8	-0.5711627
146	0xbb2e7e1a	-0.0026625455
147	0xae591e0d	-4.9366778e-11
148	0x804e6efe	-7.202985e-39
149	0x160609cd	1.0827526e-25
150	0x00091b7e	8.36382e-40
151	0xbdd57810	-0.10423291
152	0x3ac87796	0.0015294428
153	0x3d915110	0.070955396
154	0x0097eb1a	1.3951498e-38
155	0x8008d312	-8.10402e-40
156	0x3eacd131	0.3375335
157	0xbdf2ec51	-0.1186148
158	0x3ed38761	0.41314223
159	0x8014e24b	-1.917889e-39
160	0x001ef978	2.844557e-39
161	0x001c2dc4	2.587812e-39
162	0xbe3d2ce7	-0.1847416
163	0x8e0567c8	-1.6443485e-30
164	0x803375c1	-4.725852e-39
165	0x0013a724	1.804833e-39
166	0xbe9bd69b	-0.30437168
167	0x3a3237dd	0.00067984854
168	0xb9b1058b	-0.000337642
169	0x9514b23e	-3.002897e-26
170	0xbe49e131	-0.1971481
171	0x15916a44	5.873269e-26
172	0x0044fca4	6.335444e-39
173	0xbe9dcdec	-0.30821168
174	0xbf4eb445	-0.8074382
175	0xbb5bb22d	-0.003352295
176	0xaf2b190f	-1.5561262e-10
177	0x803b6b90	-5.45688e-39
178	0xbd3b3f94	-0.04571493
179	0x2695defd	1.0399393e-15
180	0xbf57a7c4	-0.84240365
181	0x330c7385	3.2701355e-08
182	0xb1aad694	-4.972046e-09
183	0x3084d48e	9.664676e-10
184	0xa80dc30c	-7.869366e-15
185	0x3dfbae63	0.12289121
186	0xbecc6236	-0.3991868
187	0x843c524b	-2.213708e-36
188	0xb4cbc897	-3.7957645e-07
189	0x9bc4e399	-3.2572562e-22
190	0xbf1eed07	-0.62080425
191	0x3ecf791c	0.40522087
192	0x13192495	1.9329351e-27
193	0x3de5b84e	0.11216794
194	0x3d5f272d	0.05448072
195	0xb6758792	-3.6586757e-06
196	0xbc165a2c	-0.009176772
197	0x37d7cfba	2.5726727e-05
198	0x3e6f7bc1	0.23387052
199	0x3d945256	0.07242267
200	0xbf0f2647	-0.5591778
201	0x3ab16185	0.0013533091
202	0xab23648e	-5.804878e-13
203	0xbb1cf6c0	-0.0023950785
204	0xbe08aa72	-0.1334627
205	0xb390ab54	-6.736687e-08
206	0x3de92ac1	0.11385108
207	0xb7d37b47	-2.5210566e-05
208	0x3f0658e3	0.5247938
209	0x3eb274d2	0.34854752
210	0xbdc3eb1a	-0.095663264
211	0x3bb1e3f2	0.0054287845
212	0x36805e50	3.8256767e-06
213	0x3c24b393	0.010052579
214	0x800b7871	-1.053397e-39
215	0x3e875870	0.2643466
216	0xbc71a4b3	-0.01474874
217	0x3df54901	0.11976815
218	0x319f15cb	4.6299866e-09
219	0x849556e0	-3.5109514e-36
220	0x3f8e190a	1.1101391
221	0xbe377e37	-0.17919241
222	0x3f1c1595	0.6097043
223	0xb50c5742	-5.228104e-07
224	0xb3360a9d	-4.238483e-08
225	0xb11b1d88	-2.2572255e-09
226	0xbd1e3e0a	-0.038633384
227	0x347ba2b4	2.3435388e-07
228	0xb2399c7f	-1.0804e-08
229	0xae8a92a6	-6.3015634e-11
230	0x3fa43730	1.2829342
231	0xbd483151	-0.048875157
232	0xbd271b89	-0.040797744
233	0x386ecf0e	5.6936457e-05
234	0xbec44f68	-0.38341832
235	0xbd007eab	-0.0313708
236	0x94962ec1	-1.516457e-26
237	0x3d89acbb	0.06722399
238	0xbdcc7906	-0.09984021
239	0x3eb94154	0.36182654
240	0x3e02cd34	0.12773591
241	0x292659d9	3.6937335e-14
242	0xbe7eef90	-0.24896073
243	0xaac330c8	-3.4672807e-13
244	0x3d8c18c2	0.0684066
245	0xbad535bf	-0.0016266628
246	0x3d34ec38	0.04417059
247	0x2e558745	4.8550736e-11
248	0xbb63bec5	-0.0034751159
249	0x3ec50b07	0.38484976
250	0x3ebf7490	0.37393618
251	0xba119a5f	-0.0005554314
252	0x3d92a897	0.07161062
253	0xb73acceb	-1.1134175e-05
254	0x3d216f61	0.03941286
255	0xbd125ba8	-0.03573194

encoder.4.bias f4 [12]
0	0x2fdb8cfb	3.993604e-10
1	0x3f1166de	0.5679759
2	0xbefed436	-0.4977128
3	0x3df270c1	0.11837912
4	0x3f0f63f7	0.5601191
5	0xae28a7c0	-3.834777e-11
6	0xa9ee3f60	-1.0580317e-13
7	0xb391a477	-6.782005e-08
8	0xba9b9edb	-0.0011872904
9	0x3f55bcd7	0.8349127
10	0x0836650e	5.488742e-34
11	0xbbbfc9ec	-0.0058529284

encoder.6.weight f4 [3, 12]
0	0x3c0c382d	0.008558315
1	0xbe3f635a	-0.18690243
2	0xbee19203	-0.4405671
3	0x3e013c52	0.12620667
4	0xbeb88e74	-0.36046183
5	0xbdbc64e0	-0.09198928
6	0xbd19dde6	-0.037565134
7	0xb8a24c90	-7.739023e-05
8	0xbb3a5426	-0.0028431504
9	0x3e623cc0	0.22093487
10	0xbc95f160	-0.018303573
11	0x3d2c2da8	0.04203573
12	0xbbe771c7	-0.007063124
13	0xbeddd557	-0.43326828
14	0x3fa16dea	1.2611668
15	0x3e8dc4b4	0.27689135
16	0x3e042be2	0.12907365
17	0xbd813086	-0.06308083
18	0x3daae490	0.08344376
19	0x3d17339e	0.03691446
20	0xbb171554	-0.0023053484
21	0xbdf07f3a	-0.117430165
22	0x3c5007c2	0.012697162
23	0x3d6e58b2	0.058190055
24	0xb939b4ae	-0.00017710283
25	0xbe97937c	-0.2960471
26	0xbe12b620	-0.14327288
27	0xbe930a8a	-0.28718978
28	0x3e320cf8	0.1738776
29	0x3df7dc66	0.121025845
30	0x3cf886c4	0.030337699
31	0xbb3f0941	-0.0029149803
32	0xbb55b862	-0.0032611121
33	0x3eaed6bb	0.341482
34	0xbc904bcb	-0.017614266
35	0xbd95da82	-0.07317068

encoder.6.bias f4 [3]
0	0x3f12050b	0.57038945
1	0xbef365ac	-0.47538507
2	0xbec4fda5	-0.38474765

decoder.0.weight f4 [12, 3]
0	0x3d51c6db	0.051215034
1	0x3eb54615	0.3540503
2	0xbe0f5729	-0.13998093
3	0x3eb98fb3	0.36242446
4	0x3f129295	0.57254916
5	0x3c9df703	0.019282823
6	0x3ce8ce5c	0.028418712
7	0x3cf0fbb1	0.02941689
8	0xbeb24f47	-0.3482611
9	0xbea707fd	-0.32623282
10	0xbda54f36	-0.08071749
11	0xbf0ebe79	-0.5575939
12	0xbecf033f	-0.40432164
13	0xbf0d5034	-0.55200505
14	0xbc83be10	-0.01608184
15	0x3d3f5e93	0.046721052
16	0xbcf6bc1e	-0.030118998
17	0xbce2bd7a	-0.02767824
18	0x3f089f87	0.5336842
19	0xbe887d2b	-0.26657996
20	0xbee80063	-0.45312795
21	0x3f089c5d	0.5336359
22	0xbed5a491	-0.41727117
23	0xbe964a22	-0.29353434
24	0xbec2662a	-0.3796857
25	0x3e952576	0.29130143
26	0x3e5cc64e	0.21560022
27	0x3e8178ae	0.25287384
28	0x3ddd7c5c	0.10814735
29	0x3ef070dc	0.46961105
30	0xbe48c762	-0.19607309
31	0x3ebb6266	0.3659851
32	0xbe5b4793	-0.21414022
33	0x3e9f8fb5	0.31164327
34	0xbe5e3b8c	-0.21702403
35	0x3d75fbde	0.060054652

decoder.0.bias f4 [12]
0	0xbfeceed5	-1.8510386
1	0x3f1f6ca1	0.6227513
2	0xbf79a59c	-0.97518325
3	0x3e9c41d1	0.30518964
4	0xbeda8230	-0.4267745
5	0xbebdb822	-0.37054545
6	0xbf95aa98	-1.1692686
7	0x3f7419f4	0.953521
8	0xbf19512c	-0.59889483
9	0x3dab97b5	0.08378545
10	0xbf4dff19	-0.80467373
11	0xbf9633f5	-1.1734606

decoder.2.weight f4 [64, 12]
0	0x000896ab	7.88733e-40
1	0xbfa48510	-1.2853107
2	0x3bc9be94	0.006156752
3	0xbf286d24	-0.65791535
4	0xbe1bbade	-0.15208003
5	0xbbded0e4	-0.006799804
6	0xbc985b22	-0.018598143
7	0xbcdb3876	-0.026760321
8	0xbe93335d	-0.28750125
9	0xbd47ac45	-0.048748273
10	0x3e1575e3	0.14595751
11	0xbe89f406	-0.26943988
12	0xbf87c585	-1.0607153
13	0x3eaa3d9b	0.33250126
14	0xad64d1a5	-1.300685e-11
15	0xbc64ef3a	-0.013973052
16	0xbc80d6b3	-0.015727377
17	0xbcc68782	-0.024234537
18	0x3e0c1d68	0.13683093
19	0xbf2a5d85	-0.6654895
20	0xbe421b7e	-0.189558
21	0x3eac132c	0.33608377
22	0xbf1ec870	-0.62024593
23	0x3e0fcb4d	0.14042397
24	0xbe9a304a	-0.30114967
25	0x3f063547	0.52425045
26	0xbdea9e67	-0.11455994
27	0xbf3300f9	-0.6992336
28	0xbf056c0a	-0.5211798
29	0xbc60b20d	-0.013714326
30	0xbe8d2aa2	-0.2757159
31	0x3e7a2d5f	0.2443137
32	0xbe9feb4d	-0.31234208
33	0xbd8ade83	-0.06780722
34	0xbf0d4deb	-0.5519702
35	0xbe78b34c	-0.24287146
36	0x3e9e9a0b	0.309769
37	0xbf5345a3	-0.8252813
38	0xbe0f6f01	-0.14007188
39	0x3df3b00c	0.11898813
40	0x3eae793b	0.34076867
41	0x3d3a26f0	0.04544729
42	0xbca5f298	-0.02025728
43	0xbe34ac94	-0.17643958
44	0x3e9af234	0.3026291
45	0xbf068e41	-0.5256081
46	0x3eb8441a	0.35989457
47	0x3ecc0a6a	0.39851695
48	0xbd8e12d8	-0.06937188
49	0xbf14f6a8	-0.5818887
50	0xaf11d4ba	-1.3263249e-10
51	0xbe0e728a	-0.1391088
52	0xbee43543	-0.44571885
53	0xbbe19252	-0.006883898
54	0xbce66106	-0.028122436
55	0xbe87e061	-0.26538375
56	0xbcd028f7	-0.025410159
57	0x3f19affb	0.6003415
58	0xbcde1d76	-0.027113657
59	0x3d05f743	0.03270651
60	0xbe20ebe7	-0.1571499
61	0xbcaf6ef8	-0.021415219
62	0x38612b92	5.368476e-05
63	0xbf33deff	-0.7026214
64	0x3ea9da4f	0.3317437
65	0xbce122ce	-0.027482416
66	0xbe8108a5	-0.25201908
67	0xbe92e403	-0.28689584
68	0xbdd42075	-0.10357753
69	0x3e05aed0	0.13054967
70	0xbf073766	-0.52818906
71	0xbebdde37	-0.370836
72	0xbbed3cf9	-0.0072399345
73	0xbd73d2b7	-0.059527125
74	0x9fc44920	-8.3130204e-20
75	0xb95d8736	-0.00021126572
76	0xbc962cbe	-0.018331882
77	0x80396d92	-5.27393e-39
78	0x098c7702	3.381569e-33
79	0xa00e8b95	-1.2074052e-19
80	0xbd02a202	-0.031892784
81	0xbbc14771	-0.005898409
82	0xbc80c424	-0.015718527
83	0x803eac5a	-5.755629e-39
84	0xbc0616dc	-0.008184161
85	0xbd992324	-0.07477406
86	0xaeeea3b0	-1.0852064e-10
87	0xbbcfad67	-0.00633781
88	0xbcd2ff86	-0.025756609
89	0x802eb85a	-4.290566e-39
90	0x8027d311	-3.657301e-39
91	0xb2ac351b	-2.0047585e-08
92	0xbcd88f77	-0.026435597
93	0xbc266ef3	-0.010158288
94	0xbc908299	-0.017640399
95	0x800b26cf	-1.024112e-39
96	0xbf6247a7	-0.8839058
97	0x3f102fb7	0.5632281
98	0xbf08f35b	-0.5349633
99	0x3ee62f0f	0.44957778
100	0xbefbb8dd	-0.49164477
101	0xbd5d55db	-0.054036956
102	0x3de5b753	0.11216607
103	0xbe60b92c	-0.21945637
104	0xbedef834	-0.4354874
105	0xbf527a14	-0.82217526
106	0xbf372ecd	-0.7155579
107	0x3cc29cb6	0.023756366
108	0x3cb97421	0.022638382
109	0xbf0746af	-0.5284223
110	0x3cc2e834	0.023792364
111	0xbf2591bd	-0.64675504
112	0xbf3d0401	-0.73834234
113	0x3cca45ce	0.024691489
114	0xbedbf88a	-0.42963058
115	0x3e9f56cb	0.31120905
116	0xbf84e116	-1.0381191
117	0xbe0f9837	-0.14022909
118	0xbee01b8b	-0.43771014
119	0xbd9f1cdd	-0.07769177
120	0xb955532d	-0.00020344248
121	0xbcad380c	-0.02114489
122	0x9a191b2c	-3.1661608e-23
123	0xb5960589	-1.1177482e-06
124	0xb7cba838	-2.4277819e-05
125	0x9295e585	-9.459803e-28
126	0xb76a6bc1	-1.3972575e-05
127	0xbb1687bc	-0.0022969088
128	0xbb09c567	-0.0021022202
129	0xbc7ffc6a	-0.015624145
130	0xb9f75b68	-0.00047179614
131	0x19b1c226	1.8379787e-23
132	0xb4c0c097	-3.5902914e-07
133	0xba34f206	-0.00069025194
134	0x81d51200	-7.826967e-38
135	0xb0dcf5b2	-1.6076938e-09
136	0xa4e65e0b	-9.9905915e-17
137	0x804521d3	-6.348783e-39
138	0x0026d504	3.566164e-39
139	0x00281dfe	3.684179e-39
140	0xb9ddc90c	-0.00042302196
141	0xb36a1a47	-5.450627e-08
142	0xb91701ad	-0.00014401106
143	0x016035e8	4.1180978e-38
144	0xae5cfcdf	-5.0246803e-11
145	0xbb453585	-0.0030091715
146	0x001444d9	1.861408e-39
147	0xb729a3c0	-1.0111311e-05
148	0xb9548056	-0.00020265704
149	0x801107c2	-1.563986e-39
150	0x0deda3bd	1.4645671e-30
151	0xb67740fe	-3.6843699e-06
152	0xb2db897b	-2.5557474e-08
153	0xb9b946e0	-0.00035338756
154	0xa8b207ad	-1.9765299e-14
155	0x142d039c	8.73498e-27
156	0xb942272b	-0.00018515873
157	0xbbfa0ea2	-0.007631139
158	0xb0e7a653	-1.6854734e-09
159	0xbd1866ec	-0.03720753
160	0xbd0d13d1	-0.034442727
161	0x9f95a304	-6.337364e-20
162	0xb7b81ddb	-2.1948412e-05
163	0xba6ef37f	-0.0009115263
164	0xbce69b05	-0.028150091
165	0xbb03c301	-0.0020105245
166	0xbc2bf8a5	-0.010496293
167	0xb410c575	-1.348288e-07
168	0xbe4ddbf1	-0.20103432
169	0xbeb334d4	-0.35001242
170	0xbe1593e6	-0.146072
171	0xbe951289	-0.29115704
172	0xbed6e476	-0.41971177
173	0xb8f79a13	-0.000118065764
174	0xbc835749	-0.016032832
175	0xbd7b2923	-0.061318528
176	0xbe86293a	-0.26203328
177	0xbeaca20c	-0.33717382
178	0xbe7b19b0	-0.24521518
179	0x3b261cd5	0.0025346775
180	0xbdf66ef5	-0.12032882
181	0xbe9622bc	-0.29323375
182	0x3d40b935	0.047051627
183	0xbebcb84f	-0.36859366
184	0xbf10c6d1	-0.5655337
185	0x3b4933f4	0.0030701132
186	0xb92871cb	-0.0001606412
187	0xbb35aaa9	-0.002772013
188	0x3f45dc26	0.77289045
189	0xbca87eaa	-0.02056821
190	0x3c748d0d	0.014926207
191	0x395be940	0.0002097236
192	0xbd353a5d	-0.044245113
193	0xbddcdedd	-0.10784695
194	0x3daed011	0.08535779
195	0xbdc3d250	-0.09561598
196	0xbe027b87	-0.12742434
197	0x3d3d99bd	0.046289194
198	0x3e8691b9	0.26283053
199	0xbe54e73f	-0.20791338
200	0xbd9205ec	-0.07130036
201	0xbe2812d9	-0.1641344
202	0xbd49352b	-0.04912297
203	0xbdcc82b5	-0.09985868
204	0xb3d6badf	-9.999143e-08
205	0xb9edaac7	-0.00045331402
206	0x802b07b0	-3.951684e-39
207	0xb5c4c023	-1.4659057e-06
208	0xb86e5937	-5.682671e-05
209	0x803814f8	-5.15031e-39
210	0x0fc26c19	1.9171515e-29
211	0xafa3892e	-2.9747e-10
212	0xb59fa3bc	-1.1894076e-06
213	0xb063a488	-8.281593e-10
214	0xb6b25cbc	-5.315609e-06
215	0x8033406f	-4.706725e-39
216	0xbe395cf5	-0.18101867
217	0xbf0d34dd	-0.5515879
218	0x3e8c83c8	0.2744429
219	0x3e1cc269	0.15308537
220	0x3e09d2b9	0.1345929
221	0xbc0c37d9	-0.008558237
222	0x3e53643d	0.20643707
223	0x3ecdd1ea	0.40199214
224	0xbec1f0ad	-0.37878934
225	0x3f1014e8	0.562819
226	0x3ebf9bc9	0.37423542
227	0x3dabfd8d	0.0839797
228	0xaa0ead9e	-1.2672369e-13
229	0xb6e01062	-6.6776274e-06
230	0x81feb1ee	-9.356018e-38
231	0x967cc25a	-2.0417724e-25
232	0xaea1d382	-7.359004e-11
233	0x0007803d	6.88852e-40
234	0x80337fa1	-4.729395e-39
235	0xa3588c37	-1.1739075e-17
236	0xab8abad3	-9.857344e-13
237	0xabeaab4b	-1.6674243e-12
238	0xb10a3b4f	-2.0115356e-09
239	0x000d9ae6	1.249429e-39
240	0x3d7e1238	0.062029094
241	0x3d656f4c	0.056014344
242	0xbe23066d	-0.1592042
243	0xbcce682d	-0.02519616
244	0x3d012ced	0.031536985
245	0x3aadda30	0.0013263877
246	0xbe57e2f9	-0.21082677
247	0xbedb546b	-0.42837843
248	0xbeeb9ced	-0.46018162
249	0xbf5246d1	-0.8213931
250	0xbf455d6c	-0.77095675
251	0xbdb67984	-0.08909896
252	0xa5ee522d	-4.1342103e-16
253	0xb2b33afa	-2.0865162e-08
254	0x801265af	-1.689516e-39
255	0xb8991222	-7.298986e-05

decoder.2.bias f4 [64]
0	0x3fbc41bc	1.470756
1	0xbf783321	-0.96953017
2	0x3eec9bb8	0.46212554
3	0xbfe16057	-1.7607526
4	0x3e9fcd1e	0.3121118
5	0x3f7548cd	0.9581421
6	0xb65ba853	-3.273152e-06
7	0xb3d788a8	-1.0036575e-07
8	0x3f5b98a7	0.85779804
9	0x401961d6	2.3965964
10	0xb1d9e651	-6.341715e-09
11	0xae5cf611	-5.024076e-11
12	0xb3551d10	-4.961936e-08
13	0xb898c46f	-7.2845134e-05
14	0xbe9a8285	-0.30177703
15	0xbe97f832	-0.29681545
16	0xbe58334c	-0.21113318
17	0xa409b713	-2.986221e-17
18	0xbfb291b3	-1.3950714
19	0x9aaf5f6a	-7.2532453e-23
20	0x3fa264de	1.2687032
21	0xa73758f7	-2.544458e-15
22	0x977d137d	-8.1773307e-25
23	0xc0379d9e	-2.8689952
24	0x0d1a16e8	4.7482486e-31
25	0x0015d68b	2.005509e-39
26	0x3fe3825f	1.7774161
27	0x3fedae92	1.85689
28	0x3f55445a	0.8330742
29	0xbfeb480b	-1.8381361
30	0x3f35c1b8	0.70998716
31	0xbd480cfa	-0.0488405
32	0x00138029	1.79085e-39
33	0xbe855ca8	-0.26047254
34	0x3ea4af25	0.32164875
35	0x990afe34	-7.185769e-24
36	0xbf1a77da	-0.6033913
37	0xab43121a	-6.930304e-13
38	0x3f535a6d	0.82559854
39	0x3f572fa0	0.84057045
40	0x3f1af076	0.60523164
41	0xbee4406c	-0.445804
42	0xbf841872	-1.031996
43	0xbc1896b5	-0.009313275
44	0xbac46900	-0.0014984906
45	0xbea644e8	-0.32474446
46	0xbe078f3f	-0.13238238
47	0xba2f8d7b	-0.00066968024
48	0x3f658a1c	0.89663863
49	0xa413ae83	-3.202336e-17
50	0x3fe09eb9	1.7548438
51	0x3f4681c6	0.7754177
52	0xbe9edf17	-0.3102958
53	0xbf2a3625	-0.6648887
54	0x3f0ed927	0.558001
55	0xb098bfce	-1.111397e-09
56	0xa9a0b28c	-7.1364e-14
57	0xba516441	-0.0007987656
58	0x3eec8a22	0.46199137
59	0xbe166082	-0.14685252
60	0xbe873f05	-0.26415268
61	0x3f44b299	0.7683502
62	0x08aaf88a	1.0289934e-33
63	0x3fe5138c	1.789659

decoder.4.weight f4 [128, 64]
0	0x001976bb	2.33848e-39
1	0x26b67a05	1.266186e-15
2	0xa5bfeb20	-3.3292545e-16
3	0xace5076d	-6.509396e-12
4	0x99009323	-6.647159e-24
5	0x235dcf7b	1.202437e-17
6	0x8145a658	-3.630253e-38
7	0x8018c637	-2.275158e-39
8	0x003fe246	5.866808e-39
9	0x0031ef5e	4.585808e-39
10	0x802225e9	-3.136006e-39
11	0x818281d2	-4.794074e-38
12	0x801facba	-2.908863e-39
13	0x01a8bf7e	6.198823e-38
14	0x80198133	-2.342235e-39
15	0xb26f904c	-1.394444e-08
16	0x001a67a3	2.424901e-39
17	0x0005afee	5.22289e-40
18	0xa9213555	-3.579544e-14
19	0x8010a8d8	-1.529938e-39
20	0x00418ccf	6.01982e-39
21	0x803b5118	-5.447385e-39
22	0x000217a0	1.92146e-40
23	0xade138e8	-2.560481e-11
24	0x80028460	-2.31158e-40
25	0x820d2495	-1.0369542e-37
26	0x8011d15c	-1.636307e-39
27	0x0042a1d0	6.11919e-39
28	0x000fdc61	1.45659e-39
29	0xb7324205	-1.0624998e-05
30	0x8004633d	-4.02942e-40
31	0x9d724b04	-3.2067215e-21
32	0x016b7748	4.3248263e-38
33	0x9aec0da0	-9.7629325e-23
34	0x039a08b7	9.053307e-37
35	0x80100875	-1.472402e-39
36	0x803daf72	-5.664903e-39
37	0x80215106	-3.059637e-39
38	0x280ea05c	7.917356e-15
39	0xa8bfba0b	-2.1285943e-14
40	0xa331903b	-9.625731e-18
41	0x00119e8d	1.618081e-39
42	0x002130c6	3.048068e-39
43	0xa5115526	-1.2605595e-16
44	0x8050bf71	-7.415516e-39
45	0x9731f04d	-5.7495087e-25
46	0x8038c926	-5.214946e-39
47	0x0010952a	1.522878e-39
48	0x89928dbc	-3.5281508e-33
49	0x8015ea63	-2.012628e-39
50	0xa8bd9268	-2.1046709e-14
51	0x0e7841fc	3.060013e-30
52	0x001e4e53	2.783162e-39
53	0xb273ef0a	-1.4198813e-08
54	0x0464c511	2.689176e-36
55	0x0031b37d	4.564328e-39
56	0x015c1870	4.042515e-38
57	0x80513007	-7.455904e-39
58	0xa7c486cc	-5.4547075e-15
59	0xb145fa98	-2.880972e-09
60	0x8020a775	-2.998808e-39
61	0xb0ff56cb	-1.857836e-09
62	0x0222edcf	1.1970128e-37
63	0x0012675d	1.690119e-39
64	0x069cf700	5.904361e-35
65	0xa18b4020	-9.43598e-19
66	0xa7731997	-3.3736897e-15
67	0xb9a49ae5	-0.00031395923
68	0x9fa06a34	-6.7938334e-20
69	0xb2d60c7f	-2.4918561e-08
70	0x813e65a0	-3.49704e-38
71	0x8014cde9	-1.910577e-39
72	0xa820c3f6	-8.9242765e-15
73	0xa73a1a0f	-2.5826812e-15
74	0x803cc3ba	-5.580343e-39
75	0x025c396e	1.6179529e-37
76	0x000d1400	1.201036e-39
77	0x82017c7a	-9.513146e-38
78	0x8030acaf	-4.470051e-39
79	0xb91bea63	-0.00014869268
80	0x00322cf9	4.607908e-39
81	0x80118e6d	-1.612296e-39
82	0xb609bb67	-2.0523673e-06
83	0x0154cd28	3.9085443e-38
84	0x99b55ce4	-1.875248e-23
85	0x0028f430	3.761018e-39
86	0x81943814	-5.444708e-38
87	0xb6ff675d	-7.6116253e-06
88	0x000baf8e	1.073168e-39
89	0x81e540fa	-8.421455e-38
90	0xa3a0dffa	-1.7442093e-17
91	0xb07c6823	-9.1825053e-10
92	0xad6c5797	-1.3434496e-11
93	0xb9d9e265	-0.00041558142
94	0x9fb40341	-7.623835e-20
95	0x80178e85	-2.163343e-39
96	0x820ce8a6	-1.0352342e-37
97	0xa98e1cfa	-6.3110934e-14
98	0xb486d033	-2.511093e-07
99	0x80141a3c	-1.846121e-39
100	0x00044f53	3.95798e-40
101	0x0029df96	3.845463e-39
102	0x104b62ea	4.0110892e-29
103	0xa1fe7cfe	-1.7244795e-18
104	0xb438d85a	-1.7215044e-07
105	0x003e8d8a	5.744575e-39
106	0x8046c880	-6.50041e-39
107	0xa8b639d9	-2.0231146e-14
108	0x81eccf7a	-8.699042e-38
109	0x0394d391	8.7472315e-37
110	0x801b6941	-2.517316e-39
111	0x018d41b4	5.18895e-38
112	0x000e92af	1.338317e-39
113	0x8003cba9	-3.48566e-40
114	0xb81831dd	-3.6286063e-05
115	0xace87e5b	-6.607865e-12
116	0x800c9cf3	-1.158329e-39
117	0xb583520e	-9.784142e-07
118	0xabd4a900	-1.5110413e-12
119	0x80179b47	-2.16792e-39
120	0x815faf58	-4.1084434e-38
121	0x80169e52	-2.077176e-39
122	0xb6efe0a5	-7.148907e-06
123	0xb426d4b9	-1.5537343e-07
124	0x80109c1a	-1.525367e-39
125	0xbb5122c0	-0.0031911582
126	0x018eb424	5.242105e-38
127	0x15c74b63	8.04944e-26
128	0x3e9774b2	0.2958122
129	0xbda07923	-0.07835605
130	0xbe980236	-0.29689187
131	0xbe0be57a	-0.13661757
132	0x3dd09b6a	0.10185893
133	0x3ee1fcb6	0.44138116
134	0x001c9135	2.623484e-39
135	0x001a13ca	2.394822e-39
136	0xbefad9aa	-0.4899419
137	0xbecbe58b	-0.39823565
138	0x927bc2fe	-7.944198e-28
139	0x000ce862	1.185389e-39
140	0x803b842e	-5.465711e-39
141	0x13914aa4	3.6676747e-27
142	0x3b88b710	0.0041722134
143	0xbf1c2a4b	-0.61002034
144	0x3da6a39b	0.08136674
145	0x8009e650	-9.0914e-40
146	0xbc087782	-0.008329274
147	0x80227e54	-3.167725e-39
148	0x3d8dd285	0.06924919
149	0x80426bca	-6.09981e-39
150	0x00132d06	1.761026e-39
151	0xbd7861fe	-0.060640328
152	0x0001cc66	1.6516e-40
153	0x00340934	4.778747e-39
154	0x3f14d63e	0.5813941
155	0x3eae57bf	0.3405132
156	0xbf15f810	-0.5858164
157	0xb81804b4	-3.6244004e-05
158	0xbe2d20e7	-0.16907082
159	0xbe3848dc	-0.17996544
160	0x003564e2	4.903471e-39
161	0xbefd2ea1	-0.49449638
162	0xbe6e958b	-0.23299234
163	0x8017b174	-2.175875e-39
164	0xbedddfa8	-0.433347
165	0x800a5078	-9.47222e-40
166	0xbd8d2cfa	-0.06893344
167	0xbf3354c9	-0.70051247
168	0xbcbcb5a9	-0.023035841
169	0xbe9ad760	-0.30242443
170	0x3561715e	8.3984e-07
171	0xbe336732	-0.17519835
172	0x2132245f	6.0356883e-19
173	0xbc7c63d5	-0.015404661
174	0x326476ea	1.3298385e-08
175	0x1e61f910	1.1962906e-20
176	0xbe2a79d3	-0.16648035
177	0x00398a77	5.284295e-39
178	0x3ee51cc5	0.44748512
179	0xbd6dfd48	-0.058102876
180	0x3e0b35f2	0.13594797
181	0x3cbe8056	0.023254555
182	0x3d97839b	0.073981486
183	0x000ccf59	1.176408e-39
184	0x00292c3b	3.781122e-39
185	0x861356b1	-2.7711318e-35
186	0xbe7f99a0	-0.24960947
187	0xbe9e034e	-0.30861896
188	0xbcdb0ba0	-0.026738942
189	0xbf04f2f4	-0.5193322
190	0x8032676a	-4.628873e-39
191	0x3f39a763	0.72521037
192	0xbd1e3764	-0.038627043
193	0x3e82eda7	0.2557194
194	0x3ee38fea	0.44445735
195	0x2c32cd4a	2.540928e-12
196	0xbe1d5346	-0.15363798
197	0x3e8d65f8	0.27616858
198	0xb49e034f	-2.94322e-07
199	0xb305a874	-3.1119683e-08
200	0xbd8c4042	-0.06848194
201	0xbef3664a	-0.47538978
202	0x34013725	1.2034123e-07
203	0x001192c5	1.613854e-39
204	0xa931e99e	-3.9504526e-14
205	0x941cea3c	-7.922182e-27
206	0xbdbcb05f	-0.092133276
207	0x3e2fe06d	0.17175455
208	0x3db01548	0.08597809
209	0x09c3bde6	4.7123122e-33
210	0xbe6d98b4	-0.23202783
211	0x1e3c9299	9.982953e-21
212	0xbe33d4b0	-0.17561603
213	0x8023b77c	-3.280064e-39
214	0x0021475e	3.056173e-39
215	0xbea6e779	-0.32598475
216	0x03a9047a	9.933955e-37
217	0x8043a0d5	-6.210674e-39
218	0x3eb6f13f	0.3573093
219	0x3ca9571e	0.020671424
220	0x3a3e304a	0.00072551204
221	0xbebdca8b	-0.3706859
222	0x3d85a98b	0.065264784
223	0x3e2915b1	0.16512181
224	0x1530c6c3	3.5699712e-26
225	0xbe80dd17	-0.25168678
226	0xbdef38a4	-0.11680725
227	0x000b5d5c	1.043681e-39
228	0xbe004dca	-0.12529674
229	0x14e727a2	2.3340672e-26
230	0xbd9d6ada	-0.07686396
231	0x3f09cbc9	0.53826576
232	0xbed7ae73	-0.42125282
233	0x3e9ce495	0.30643144
234	0xa682ce83	-9.076537e-16
235	0x3e02fc51	0.12791564
236	0xbb9d742f	-0.00480511
237	0x3e4dbadc	0.20090812
238	0x3ca85953	0.020550406
239	0x34987aa3	2.8401436e-07
240	0xbe8311a7	-0.25599405
241	0xb4811eb0	-2.405045e-07
242	0xbe4e6a48	-0.2015773
243	0x3b90a665	0.004414367
244	0x30dd3b9c	1.6096808e-09
245	0xbe8996d9	-0.268729
246	0xbd15a45f	-0.03653371
247	0x8007776d	-6.8569e-40
248	0x1701d168	4.1946456e-25
249	0x317c0340	3.6672674e-09
250	0xbe0a2a6e	-0.13492748
251	0xbbbf44b3	-0.005837047
252	0xbe4c4f0c	-0.19952029
253	0xbdb1ac5e	-0.086754546
254	0x032440b9	4.8269566e-37
255	0x3d352bf7	0.04423138

decoder.4.bias f4 [128]
0	0xaa0368f9	-1.1671557e-13
1	0xb60632af	-1.9997058e-06
2	0xbde32704	-0.11091426
3	0xbe26c527	-0.16286145
4	0xa5256998	-1.4347245e-16
5	0x3ca5817a	0.02020334
6	0xbef3b59f	-0.47599503
7	0xaf3c21c3	-1.7110495e-10
8	0x406e55c1	3.723984
9	0x3f1fa90f	0.6236734
10	0x3e237b9c	0.15965122
11	0xbe466790	-0.19375443
12	0xbec60a6f	-0.38679835
13	0xbd872688	-0.06599146
14	0x3eb80e0e	0.35948223
15	0xaf834c17	-2.3882826e-10
16	0xae26e825	-3.7950216e-11
17	0xbcf950d8	-0.030434057
18	0xbef9a00e	-0.48754925
19	0xbb15aa58	-0.0022837128
20	0xb6ff5fe6	-7.6107563e-06
21	0xb08e3e6f	-1.0349605e-09
22	0xbe04a761	-0.12954475
23	0xb4097d83	-1.280478e-07
24	0xbb2a96ce	-0.0026029828
25	0x99853781	-1.3774296e-23
26	0x3c8ccace	0.017186549
27	0xaec40a04	-8.914827e-11
28	0xb5d5360c	-1.5885466e-06
29	0xbe2ccc96	-0.16874918
30	0x3f0fbef2	0.56150734
31	0xb62e7a0f	-2.5999068e-06
32	0xbd2fafe3	-0.042892348
33	0xbe2e1603	-0.17000584
34	0x3f05e6e8	0.5230546
35	0xbe725803	-0.23666386
36	0x3e7a0726	0.2441679
37	0xbf49452d	-0.7862118
38	0x976924c2	-7.5332755e-25
39	0xbd13c007	-0.036071803
40	0x3eb431e3	0.3519431
41	0xbfbf0dc2	-1.4926074
42	0xbd4466d3	-0.047949623
43	0x3f1c2625	0.60995704
44	0x3e1f559d	0.15560003
45	0xaeaa1684	-7.7347045e-11
46	0xb9dcdae9	-0.0004212477
47	0xae72d815	-5.521635e-11
48	0xbcd54fb5	-0.026038984
49	0xab98148e	-1.0805955e-12
50	0x3f1219ae	0.57070434
51	0xaa498dc6	-1.7901574e-13
52	0xbf4bac82	-0.795601
53	0xbde7e29a	-0.11322518
54	0xbafbcd98	-0.0019211052
55	0xbf0222b0	-0.5083418
56	0x3e04b897	0.1296104
57	0xbef346f2	-0.47515064
58	0x3e498203	0.19678502
59	0x3f3be03b	0.73389024
60	0x9b5eaa0f	-1.8418358e-22
61	0xbd99f020	-0.07516503
62	0xbe80aef6	-0.25133485
63	0x98938499	-3.81325e-24
64	0xbe9a7526	-0.30167502
65	0xbcb26de6	-0.02178092
66	0xbdec0edd	-0.115262724
67	0x9427a900	-8.464675e-27
68	0xbe720797	-0.23635708
69	0xbd9a8c18	-0.07546252
70	0xbbc4ba9a	-0.00600369
71	0x3f19ff36	0.60155046
72	0x98c24b1c	-5.0223666e-24
73	0xb13cab50	-2.745498e-09
74	0xba0844f0	-0.0005198261
75	0xa06972d1	-1.9773857e-19
76	0xb8caeb1e	-9.6759046e-05
77	0x3e3e1c54	0.18565494
78	0x3eed9c95	0.46408525
79	0x8e1e2282	-1.9491619e-30
80	0x91d4fd11	-3.3603667e-28
81	0xbc1391d8	-0.00900694
82	0x3d755ab7	0.059900966
83	0xabb6296a	-1.2943373e-12
84	0x3f1066bf	0.5640678
85	0x3f0008f2	0.5001365
86	0xa4822f8c	-5.645906e-17
87	0x947292a9	-1.2246801e-26
88	0xb81fdf93	-3.8116774e-05
89	0xbb47dec2	-0.0030497764
90	0xbdfba818	-0.12287921
91	0xbdb8b107	-0.0901814
92	0xa89692c3	-1.6716993e-14
93	0x978a6912	-8.944564e-25
94	0x3d6b8935	0.057503898
95	0xbc142176	-0.009041181
96	0x3e4d31ef	0.2003858
97	0x3bdf81ef	0.006820909
98	0xb2b77aee	-2.1359906e-08
99	0xbf0ca85b	-0.5494439
100	0xbe361537	-0.1778153
101	0xbdf88b51	-0.121359475
102	0x8abc99fe	-1.8161667e-32
103	0xbd830517	-0.06397455
104	0xb4525d7f	-1.9591788e-07
105	0x3e72eafe	0.23722455
106	0xbe32f8ed	-0.1747777
107	0xbd29a41f	-0.041416284
108	0xbd41029b	-0.047121625
109	0xb89b40cf	-7.4030475e-05
110	0x9362a7f4	-2.8608018e-27
111	0xbe77c035	-0.24194415
112	0x8c98424c	-2.345921e-31
113	0xbe5b71da	-0.2143015
114	0xb041fc75	-7.0571754e-10
115	0x3def9210	0.11697781
116	0x3ecce52e	0.400186
117	0xbe16c3bc	-0.14723104
118	0xa613797b	-5.1165507e-16
119	0xba5c598d	-0.0008405678
120	0xbc054f86	-0.008136636
121	0x3eef3855	0.46722665
122	0x1d747557	3.2353794e-21
123	0xbb4883c7	-0.0030596124
124	0xbd854ded	-0.06509004
125	0x3eedb172	0.46424443
126	0xbdaa6c36	-0.08321421
127	0xaa58171a	-1.9192669e-13
